.archive/cxd_cache/embeddings/b24b677af8ed5f19.npy (npy, 1664 bytes, 1 tensors)

array f4 [384]
0	0xbd9197c4	-0.07109025
1	0xbd1ffd09	-0.039059673
2	0x3d6f08c9	0.058357988
3	0xbc1a7429	-0.009427109
4	0x3d1e48d1	0.038643662
5	0xbc79e818	-0.015253089
6	0x3b11bb5c	0.002223692
7	0x3d01c5c2	0.031682737
8	0xbd46f94e	-0.0485776
9	0x3cbebfc4	0.0232848
10	0x3d3bad8f	0.045819815
11	0xbc36531b	-0.011128212
12	0x3c8652f9	0.016396986
13	0x3b5b282c	0.0033440692
14	0xbcce75db	-0.025202682
15	0xbc9e3497	-0.019312186
16	0x3c14c104	0.009079222
17	0x3d3a3ed6	0.04547008
18	0x3dd8ae78	0.10580152
19	0xbd3b5948	-0.045739442
20	0xbd524e1c	-0.051344022
21	0xbd09d74b	-0.033652585
22	0xbcf65a4c	-0.030072354
23	0xbd05577b	-0.03255413
24	0xbc42f4e8	-0.0118992105
25	0x3d26e876	0.040749036
26	0x3dad9706	0.08476071
27	0xbc9862a4	-0.018601723
28	0xbd493f03	-0.04913236
29	0xbd0a859b	-0.033818822
30	0x3ca91d35	0.02064381
31	0x3c465364	0.012104843
32	0x3cada7ba	0.021198142
33	0xbd283623	-0.041067254
34	0x3dd97d42	0.10619594
35	0x3d92125b	0.07132407
36	0x3b99ce30	0.004693769
37	0x3ca2ccea	0.019873101
38	0xbdc0d5a9	-0.094157524
39	0xbdf68ccc	-0.120385736
40	0xbd43fb4f	-0.04784709
41	0xbbfcdd8c	-0.00771684
42	0x3db84f0c	0.08999452
43	0xbc8c1b48	-0.017102852
44	0x3d8a5295	0.067540325
45	0xbd2de1cb	-0.04245166
46	0xbd5c1a89	-0.053736243
47	0xbc0ba737	-0.008523754
48	0xbd13287d	-0.035927285
49	0x3ba5f0c3	0.0050641014
50	0xbd5fe2cd	-0.054659653
51	0xbd52ca21	-0.051462296
52	0xbc089b28	-0.008337773
53	0xbc549adb	-0.012976374
54	0x3daf4a8a	0.08559139
55	0x3d3f44d8	0.046696514
56	0x3cceda8d	0.025250698
57	0xbdb0df52	-0.08636345
58	0xba8e39a2	-0.0010850916
59	0xbd10b36d	-0.035327364
60	0xbcbd5298	-0.023110673
61	0xbd24a318	-0.0401946
62	0xbdba2270	-0.090886
63	0x3cb2dc15	0.021833459
64	0x3db741c3	0.0894809
65	0x3d8a173f	0.06742715
66	0x3d5e8ba4	0.05433239
67	0x3d377ebf	0.04479861
68	0x3d6d0aaf	0.057871517
69	0xbca48c4b	-0.020086428
70	0xbdc655b8	-0.09684318
71	0xbc66599b	-0.01405945
72	0xbd30fa9c	-0.04320775
73	0x3d94141e	0.072303995
74	0x3c9c670b	0.019092103
75	0x3c340365	0.010987137
76	0x3cb45979	0.02201532
77	0xbd1855a8	-0.037191063
78	0x3da67751	0.081282265
79	0xbd6a961a	-0.057272054
80	0xbd15303b	-0.03642295
81	0x3d7ce425	0.061741013
82	0xbc2682c6	-0.010163015
83	0xb7875fae	-1.6137808e-05
84	0x3cca4703	0.024692064
85	0x3c756c92	0.014979498
86	0x3d3b10cc	0.045670316
87	0x3dc1cbfb	0.09462734
88	0x3d23ca6a	0.03998796
89	0x3d2d27be	0.04227423
90	0x3cd71c9a	0.026258755
91	0x3dab87c2	0.08375503
92	0xbd8cf716	-0.068830654
93	0xbcbf1e6b	-0.023329934
94	0xbb63f006	-0.0034780516
95	0xbd7898ed	-0.060692716
96	0xbd86d022	-0.06582667
97	0xbd667b77	-0.05627009
98	0xbca156c2	-0.01969469
99	0x3dd242d7	0.10266655
100	0xbc8ed194	-0.017433919
101	0x3d0a5fc6	0.033782743
102	0x3d4ce115	0.050019342
103	0xbdabd39a	-0.08389969
104	0xbb9b2d27	-0.004735607
105	0xbddda4da	-0.108224586
106	0x3d18ee95	0.037336905
107	0xbd0fb731	-0.035086814
108	0x3d2c6f5a	0.04209838
109	0x3d6d2040	0.057892084
110	0xbc4b302f	-0.012401625
111	0x3b380072	0.0028076437
112	0xbd5faa36	-0.054605685
113	0xbd912333	-0.07086792
114	0x3e03adf3	0.12859325
115	0x3bdae625	0.0066802674
116	0x3d1d16c2	0.03835178
117	0x3bc38f47	0.0059680077
118	0x3caa0173	0.020752644
119	0x3cdfe191	0.027329238
120	0xbd5f40ed	-0.054505277
121	0xbd0fb0c1	-0.035080675
122	0xbd8acc71	-0.06777275
123	0x3c4aa7d0	0.012369111
124	0xbc999274	-0.018746592
125	0x3d261188	0.040544063
126	0x3b05c69c	0.002041257
127	0x070240aa	9.799116e-35
128	0xbc8c1848	-0.017101422
129	0xbd43aeec	-0.04777424
130	0x3d517a86	0.051142238
131	0x3c17ca5a	0.009264553
132	0x3d3bf042	0.045883425
133	0x3afcc1d3	0.0019283838
134	0x3d267192	0.040635653
135	0xbd93407a	-0.07190032
136	0xbd267675	-0.040640313
137	0xbca08472	-0.019594405
138	0xbc3f59e9	-0.011679151
139	0x3cdedc9d	0.027204806
140	0xbdcb2b4a	-0.09920366
141	0x3d58bc06	0.052913688
142	0x3d48923a	0.048967578
143	0xbe243cc5	-0.16038807
144	0xbcbedece	-0.0232996
145	0x3e34c9bb	0.17655079
146	0x3d42910d	0.047501612
147	0xbcd8d51a	-0.026468802
148	0xbd65799f	-0.05602419
149	0x3d3b60ba	0.045746543
150	0x3d3e5d47	0.046475675
151	0xbd02a65a	-0.031896926
152	0x3dcc1ddb	0.09966632
153	0x3db1432e	0.08655392
154	0xbd62bc81	-0.055355553
155	0x3ca53f54	0.020171799
156	0x3dd5aab5	0.104329504
157	0xbb851c10	-0.004062183
158	0x3a8cc8db	0.0010741012
159	0xbc90d666	-0.017680358
160	0xbd9f4b98	-0.0777809
161	0xbb0ecf1c	-0.0021790927
162	0xbd158c6f	-0.03651088
163	0x3c237c5c	0.00997838
164	0xbd81f5c9	-0.06345708
165	0xbdd49b2a	-0.10381158
166	0xba3858ce	-0.0007032276
167	0x3b9be446	0.004757437
168	0xbd90cf97	-0.070708446
169	0xbd0ceb3d	-0.03440403
170	0x3d323c28	0.0435144
171	0xbc04634b	-0.008080314
172	0xbd9c5ae1	-0.07634521
173	0xbb997c71	-0.004684024
174	0xbd4e16bf	-0.05031466
175	0xbcbe3fe2	-0.023223821
176	0xba440598	-0.000747764
177	0xbc488c08	-0.012240417
178	0x3d726627	0.05917945
179	0x3c95f85e	0.018306907
180	0xbb02f54b	-0.0019982632
181	0xbd872cc0	-0.06600332
182	0xbd370b92	-0.04468877
183	0xbd24b8b7	-0.04021522
184	0x3c85a5db	0.016314438
185	0xbd0742b6	-0.033022605
186	0x3d5da480	0.054111958
187	0x3d541cb1	0.051785175
188	0x3d04448a	0.032291926
189	0x3d8ec4af	0.06971108
190	0x3ca14c0f	0.019689588
191	0xbd1621a0	-0.03665316
192	0x3de29c66	0.11064987
193	0x3a9d35c7	0.0011994176
194	0x3c31b5ed	0.010846597
195	0xbd0f2d1b	-0.034955125
196	0x3db74a42	0.089497104
197	0x3d76cf47	0.06025627
198	0xbd17a43c	-0.03702186
199	0xbd39b305	-0.045336742
200	0x3d75c5c4	0.060003057
201	0xbd9e4cc5	-0.077294864
202	0x3d1e13f4	0.038593248
203	0xbd46ceb5	-0.048536975
204	0xbcf14bc6	-0.029455077
205	0x3d7d3161	0.06181467
206	0xbc973392	-0.018457208
207	0x3d582b0b	0.052775424
208	0xbdb16582	-0.08661939
209	0xbc8ab218	-0.016930625
210	0xbd156467	-0.036472704
211	0xbd3ae7c5	-0.04563119
212	0x3d78bfc4	0.060729757
213	0xbc846833	-0.016162967
214	0xbc106c22	-0.008814843
215	0x3c278cdb	0.010226454
216	0x3d88be03	0.06676867
217	0xbc5f40ce	-0.0136262905
218	0xbc32a08e	-0.010902537
219	0x3bbb95fe	0.0057246676
220	0x3cfa49ef	0.030552832
221	0x3d8bc1aa	0.06824048
222	0xbd53537d	-0.051593293
223	0x07d5733b	3.2116404e-34
224	0xbd271eb0	-0.04080075
225	0xbd3b9103	-0.04579259
226	0x3a0e3f84	0.00054263347
227	0x3dfe4419	0.12415332
228	0xbd484adc	-0.048899516
229	0xbd1c6b6a	-0.038188376
230	0xbcc89063	-0.024482911
231	0xbdafccf9	-0.08584017
232	0x3d1fd824	0.039024487
233	0xbd576e1d	-0.052595247
234	0xbc0e94d0	-0.008702472
235	0xbd6cda67	-0.057825472
236	0x3c0c6416	0.008568784
237	0xbda013aa	-0.078162506
238	0x3d8dab06	0.06917386
239	0xbca5633a	-0.020188916
240	0x3b92408b	0.0044632605
241	0x3c5e8003	0.013580325
242	0xbbe10f3d	-0.0068682716
243	0x3d3890a5	0.04505982
244	0x3c5a2933	0.013315487
245	0x3c0610a7	0.008182681
246	0x3c35b403	0.011090281
247	0x3cd743ad	0.026277388
248	0xbd22ae3a	-0.039716937
249	0x3d0ae3fb	0.033908825
250	0xbc75f329	-0.015011587
251	0x3c8c1057	0.017097635
252	0x3c1e14b4	0.009648491
253	0xbd48230a	-0.04886154
254	0x3c2e43bb	0.010636265
255	0x3d31ed55	0.043439228
