.archive/cxd_cache/embeddings/b635e393525e302b.npy (npy, 1664 bytes, 1 tensors)

array f4 [384]
000000 0f d0 15 3c c1 b1 83 bc b3 25 33 bb 7d 42 49 bd
       0.009143843 -0.01607597 -0.0027335703 -0.049135674
000010 13 5e 19 bd fb e2 0b bd 0f 50 d1 3d 64 27 ed bc
       -0.03744323 -0.034152012 0.10220348 -0.028949447
000020 dc d9 29 3d 25 bf 88 bb 7b 48 3d bc a9 b7 77 bd
       0.041467533 -0.004173177 -0.011552925 -0.060477886
000030 c2 46 8b 3a 86 2a bd 3c 50 e7 c9 3c f5 be 2c 3c
       0.0010625946 0.023091566 0.024646431 0.010543575
000040 27 47 d3 3d 7e 63 8d 3a ba 49 a1 3c 43 2b c3 bc
       0.103163056 0.0010787097 0.019688476 -0.02382434
000050 7e 5c 15 3d b2 b9 25 3c 35 a1 52 3c ca 65 90 bd
       0.03646516 0.010115074 0.012855818 -0.07050665
000060 85 aa 89 3c a0 dc 28 39 07 28 a1 3c 41 76 a1 bd
       0.016804943 0.00016103918 0.019672407 -0.07883883
000070 74 47 19 3e 3f d0 cb bd 77 c9 de 3d e4 48 49 3d
       0.14968663 -0.09951829 0.1087827 0.04914178
000080 d7 0e 2c 3d 8f 10 b8 3a 4f e2 96 bd d1 18 9c 3d
       0.04200634 0.0014043021 -0.07367384 0.07621921
000090 77 55 0c 3d 65 66 83 bd b1 28 19 bd 5a c4 60 3c
       0.034261193 -0.064160146 -0.037392322 0.013718689
0000a0 34 9d ce bb c6 d0 61 3d ae 00 8f bb 6f fe cc 3c
       -0.006305361 0.055130742 -0.0043640947 0.025023667
0000b0 d2 bd 1c 3d 90 89 81 3d 98 eb ab bd bc b7 99 3d
       0.038266964 0.06325066 -0.08394545 0.07505748
0000c0 34 4a ee bc 7c ab ba bd 90 98 86 bd 78 84 eb 3b
       -0.029088117 -0.09114739 -0.06572068 0.0071874224
0000d0 b2 96 97 3c 7a 2a b5 3d 28 86 31 bd c8 51 ce 3b
       0.018504474 0.088459924 -0.043340832 0.00629637
0000e0 6e 13 a0 bd 6c 93 7f 3d 1e 9f 00 bd f5 f2 29 bd
       -0.07816206 0.06239645 -0.031401746 -0.041491468
0000f0 e4 c0 2b bd 54 ad 3e bd b9 c1 9d 3c 1f c0 72 bc
       -0.041932 -0.046552017 0.019257413 -0.014816313
000100 ee f8 27 3d 99 07 cd 3d 0a c0 a0 bc e0 53 80 3d
       0.041008882 0.10011215 -0.019622821 0.06265998
000110 c1 17 9f 3d ff c5 8a bd 9f d9 85 3b ac 53 24 bd
       0.077682026 -0.06776046 0.0040847803 -0.04011886
000120 45 e5 e2 3c dd 3b 60 bd 0a e2 b4 3c 62 a8 5b 3d
       0.027697215 -0.05474459 0.02208044 0.05362738
000130 cd 0d ec 3a a4 7e 2f bd e0 dc 37 3d d9 89 39 bb
       0.0018009484 -0.042845383 0.044888377 -0.0028310923
000140 1f a7 f7 3b e1 ca bc 3c 5d 42 63 3c 4f c1 4f bd
       0.007557764 0.023045959 0.013870803 -0.050721463
000150 bf 6a cb 3c 8c 2d a7 3c 83 20 61 bd 8b 49 59 3d
       0.024831174 0.02040746 -0.054962646 0.05304865
000160 b0 da c7 bc a1 46 64 3d 62 96 b5 bc d7 d8 bf bc
       -0.02439627 0.05573142 -0.022166435 -0.023418827
000170 64 1c 93 3c 8c 19 60 bd 3d 06 c1 3c 67 25 37 3a
       0.017957874 -0.054711863 0.023562545 0.00069864694
000180 d6 32 98 bc 89 dd 00 3b 68 ae f0 bc 7b 1a 32 3d
       -0.018578928 0.0019663295 -0.029380038 0.043482285
000190 eb 48 1e bc 66 c1 d0 3c 9e af 06 bd 3d e6 b3 bc
       -0.00966094 0.025482845 -0.032882325 -0.021960372
0001a0 93 60 02 3a e3 77 68 3c 17 97 9d 3c 22 2b 38 bd
       0.0004973497 0.0141887395 0.019237084 -0.04496301
0001b0 e1 0e cb 3d 6f 4f 0d 3c 0b 14 4a bd 95 b6 77 bc
       0.09914947 0.0086248955 -0.04933552 -0.015119215
0001c0 7c a3 b9 3c 38 99 f4 bb da d7 d5 3d 84 ca 28 bc
       0.022660963 -0.007464554 0.10441561 -0.01030219
0001d0 4b 77 a7 3c a1 0c fe 3d 5c 0f 97 3d f4 bc 5f bb
       0.020442626 0.124047525 0.073759764 -0.0034139724
0001e0 92 9d ef 3c d5 cb e2 bd e8 fe 23 3d db 93 b8 bd
       0.02924994 -0.11074034 0.04003802 -0.09012576
0001f0 9a 8c 81 3c a7 14 af 3d 54 b9 8f bd 06 75 a7 09
       0.015814114 0.08548861 -0.070177704 4.0313836e-33
000200 38 b9 2d 3c 0d a7 83 3b a6 41 01 bd 62 f2 c5 3d
       0.010603242 0.0040177167 -0.031556748 0.096653715
000210 1e de 8f 3d 98 9d 57 3c e7 a7 ac bc f4 a6 38 bd
       0.07024787 0.013160132 -0.021076156 -0.045081094
000220 37 1c 3f bd 4e 64 65 3c ee 8d 52 bc 9e 7b eb 3c
       -0.046657767 0.014000965 -0.0128512215 0.028745469
000230 88 de a4 39 62 55 c0 3d e1 c4 f4 3c 6d 24 89 bd
       0.00031446316 0.093912855 0.029879035 -0.06696401
000240 61 6d e4 bc 7d 47 d3 bb e9 03 6a 3c 8b f3 cc bd
       -0.027884187 -0.006447731 0.014283159 -0.1000739
000250 83 39 02 3c 7d 86 fd 3c 99 ec e6 3c a5 87 2e bc
       0.007948282 0.030947918 0.02818899 -0.010652457
000260 5a 9b fe 3c 09 8d 81 3d 61 a3 27 bb a8 8c 0e bd
       0.031079937 0.063257284 -0.002557956 -0.03480211
000270 98 61 42 3b ba 39 ec 3c 1d b7 99 bd c3 62 ee 3d
       0.0029660221 0.02883612 -0.07505629 0.11639931
000280 03 a3 dd bd 5e e6 04 3d e0 2d 02 bc 78 b6 86 3d
       -0.10822108 0.032446258 -0.007945508 0.06577772
000290 33 ff 98 bc 6c 38 8b bc 56 fd c6 bb 1b d0 38 bd
       -0.018676376 -0.016994677 -0.0060726805 -0.04512034
0002a0 83 73 ec bc c3 a2 ca 3c 0b be 73 3d 73 42 c0 bd
       -0.028863674 0.024735814 0.05950741 -0.09387674
0002b0 8d 4a e1 bd 06 68 70 bd 30 4f 9b 3d 14 fe 48 bb
       -0.110005476 -0.058692954 0.07583463 -0.003066902
0002c0 e9 8f 86 3d 8a 46 bb bd 6c 67 8a bc 37 35 0d bc
       0.065704174 -0.09144314 -0.016895019 -0.008618644
0002d0 b4 f9 01 bd cd e8 83 bd 00 a4 0f bc e5 70 41 bb
       -0.031732276 -0.064408876 -0.008767128 -0.0029516753
0002e0 56 29 57 bd a0 62 b8 3d 86 94 79 3d c3 bf 93 3d
       -0.052529655 0.09003186 0.06093266 0.0721431
0002f0 5c 02 07 bd ad 88 a7 3c 48 91 26 bd 2b 32 97 3d
       -0.032961234 0.020450914 -0.040665895 0.07382616
000300 bf e4 d9 3d aa 51 d8 3c 42 1d 15 be 24 c9 93 bd
       0.10639333 0.026406128 -0.14561942 -0.07216099
000310 c7 6c 1b 3d 6d b4 5a 3d 70 4f 3c 3d 2c d5 0a bd
       0.037945535 0.053394724 0.045974195 -0.033894703
000320 3e 14 ab bc 3f 37 81 bd 4a 0e 33 bd d4 ab 41 bd
       -0.020883676 -0.063093655 -0.0437148 -0.04728301
000330 07 be 17 3d dd 4e 60 bc 15 72 a5 bd cb a6 57 3d
       0.03704646 -0.0136906775 -0.080784 0.0526493
000340 80 60 24 3d 6f 90 0f 3d 5b 21 6f bc b7 6a 88 3a
       0.040131092 0.035049852 -0.014595355 0.001040778
000350 0b 9c 24 3d 37 05 19 3c a1 81 0a 3d d7 7c 13 3c
       0.040187877 0.009339622 0.03381503 0.009001932
000360 76 94 aa bd 3c c0 fb bb 85 a7 87 3b f7 51 9d 3c
       -0.08329098 -0.007682828 0.004139843 0.019204123
000370 04 77 34 3e 4a fc 92 bc 03 6e b6 bd fb 89 90 89
       0.17623526 -0.017942566 -0.08907702 -3.4796495e-33
000380 d2 49 91 bd ed d8 0c 3d 5c c3 4f bd 9c ba c6 3c
       -0.07094158 0.034386564 -0.05072342 0.024258904
000390 87 c5 38 3d ac 5d 98 bc 4b aa 68 bc f3 f4 00 3c
       0.04511025 -0.018599354 -0.014200757 0.0078709
0003a0 23 d7 dd bd 8f 6e 56 bd 04 46 1e 39 ab a5 30 3d
       -0.1083205 -0.05235153 0.00015094137 0.043126743
0003b0 09 25 81 3d fa 8f 54 3d 96 7c 1b 3c 10 b5 f4 bc
       0.06305892 0.05189512 0.009490153 -0.029871494
0003c0 3b 37 c6 3c 65 4e 41 bd f2 d0 7d bd d4 4e 60 bd
       0.024196258 -0.047193903 -0.061966844 -0.054762676
0003d0 78 ad 81 3b 78 6b 02 3d d6 ac ec bd 96 eb 1f bd
       0.0039574467 0.03184077 -0.11556403 -0.03904303
0003e0 e9 17 9e 3c 63 fa 0e 3d db 7a a8 3c 5a 60 ac 3d
       0.01929851 0.034906756 0.020566395 0.08416815
0003f0 f8 32 a8 3d 97 2f 17 bd e1 1c 26 bd 8d 5c ce 3c
       0.082128465 -0.03691062 -0.040554885 0.025190616
