cxd_cache/embeddings/b1b811a73f960e62.npy (npy, 1664 bytes, 1 tensors)

array f4 [384]
00000000: a08d 7abd 6909 5bbd ba11 12bd c092 9abc
00000010: 430e 93bd 4435 7ebd 8ca9 563d e0f3 0abd
00000020: 1407 3dbd a088 0e3d 8341 0cbd 417e 5bbc
00000030: 3e97 973c f368 443d 61ee fe3d c6fd e13c
00000040: 6be7 cf3c e8a7 d4bd cd94 dcbc b198 8ebd
00000050: 9c81 0c3d 5f61 4cbd 5b85 ee3c 8762 cabc
00000060: a4ee a13a 7b3a a8bc dfd6 3d3d e240 4d3d
00000070: f73c 0d3d 302c 073c 0589 c7bc 1f68 983d
00000080: 89e1 813d 6c7a 3d3d 9218 b13d bd60 e83d
00000090: 2763 393c 1407 c63c 6a98 e2bc abb9 c93b
000000a0: fae5 ccbc d6b2 adbc d16f afbb 9451 b3bd
000000b0: 4603 903d ffb1 2fbd ede0 e7bc bf26 dcbc
000000c0: 83b3 b4bc f882 33bd c893 6fbb c050 92bd
000000d0: d21b 333d 8656 f63c d8aa f33c 5b5f 793c
000000e0: d370 d03d 2acd 913d dda2 a83c 4317 53bd
000000f0: bf86 203c 19c7 363c d9a9 63bd abf4 763b
00000100: 0b3d ecbc 8bd7 313d 3061 4d3c 66db 073e
00000110: 70f3 d83c 437d 1ebd 1589 48bd d101 06bd
00000120: 7cef ddbd fc4e 6abd 11cc c23b 5ab3 d7bc
00000130: eeed 6b3a 10af ae3d 2217 f33c 6459 30bd
00000140: 2701 a3bd cc4c cabc c521 d0bc b0bd b53d
00000150: e7a7 0fbc ff24 373d fdd6 503d 095d 1bbc
00000160: ef5b 8b3d dfc4 7d3a f826 bd3b d995 33bd
00000170: 433e 7d3c 3256 bf3c 1e4d 9ebd 1aa9 023d
00000180: db85 e83c 588d 863c c162 00bd 3390 793d
00000190: 5bbb a23b 1af4 02bd 1b1d 8a3b ac80 6cbd
000001a0: 3331 ae3c 0a74 193d 6365 60bc 1a88 d1bb
000001b0: 9313 e73c a653 aa3d 2b6f 9abd 0330 123d
000001c0: 43c4 d33b 4eb5 0cbd 2230 163c 83c1 283c
000001d0: 78ff 893c da73 a13d aa9f 063c 8745 0dbc
000001e0: dee6 ee3c c3ad 803c b7fa fc3c ca96 1b3d
000001f0: e0e9 b93a c835 c43d 24f6 ecbd b363 5608
00000200: aef8 2d3d fd51 32bd 35e1 bfbb 0d9b 053d
00000210: c727 843d 497a 3cbd fa26 ac3c 57a2 b33c
00000220: f8b0 b9ba f374 af3b c035 25bd f48b 173d
00000230: f226 18ba fdeb 913c 60e5 9a3c 1344 6fbd
00000240: dac0 f6bc 104d 523c 03cd 863a e858 903b
00000250: e3f6 c2bc eb3b cfbd 0337 7abb e449 67bc
00000260: 64e3 f13d 2f03 8d3d 3a96 e83d c46a be3b
00000270: 83c0 ba3c 2db9 293d 73c1 7e3d 73a5 febc
00000280: a31e c23d ed59 87bd 034f 7e3c 2a0a 183d
00000290: 63fe 453d e3a0 bdbc 14d2 4cbd b5c9 f83c
000002a0: e8dc d13c c509 0dbd f5d2 5abd 95b5 fcbc
000002b0: c1f2 de3c 1ff8 96bd bc95 f73d 331d 5bbd
000002c0: bb40 2b3e b26d 19bd 8dfb c43a 8cb4 d2bc
000002d0: 97af a13d 4192 693b 5200 b23d 7cab 65bd
000002e0: 4007 023d c00c 2bbd 6ead b43c 7875 c03c
000002f0: 4bdb 91bd 7455 82bc 972d 7abd b71a 953d
00000300: d893 5d3d 0b3d 673d b954 e7bc 4cec a43c
00000310: efb8 3c3d 3b23 b2bc b448 0bbd b5de debb
00000320: 1ebd b1bd c9dd eabc 2055 62bd 5797 f5bc
00000330: 08a8 0fbd 6a2f c53d 613d 073c 50a4 c63c
00000340: 156d 173c eddf b6bc 98cc 973c 2b46 c23b
00000350: 61a8 1bb9 c7ac 2d3d 27db 863d 77b6 21bd
00000360: 3a75 72bd 4f87 0e3d 4a77 b13c 11c9 603d
00000370: ccc1 adbc 6f91 b93d 7641 7b3c 873b 7188
00000380: 2f95 26bc c383 8f3d f137 0abd 59af b2bc
00000390: d2c1 653d 5ace 09bd e796 e9bc c845 86bd
000003a0: 3a2c 133d 9d57 d23d 7238 cfbd ca33 a6bd
000003b0: 8c3c 5fbd fbe5 54bc 6b26 06bb 46de 76bd
000003c0: 1cbb 8b3d 896c 54bd 547f bcbc 4374 a83c
000003d0: 3d96 8cbd 9eb6 c33c d695 4abb 9ade e6bd
000003e0: 917c 2d3d d70e 1ebb 9fd3 82bc f8b5 8ebb
000003f0: 4ab8 eeba a6b6 72bd 59d9 ad3b a84b 47bd
-0.06117022 -0.05347577 -0.035661437 -0.018868804 -0.071804546 -0.062062517 0.052407786 -0.033923984
-0.04614933 0.034798265 -0.034242164 -0.0133968005 0.018504735 0.04795165 0.12447811 0.027586829
0.025378903 -0.10383588 -0.026926422 -0.06962717 0.034303293 -0.049897548 0.029116323 -0.024705185
0.0012354446 -0.020535698 0.046347495 0.050110705 0.03448197 0.008250281 -0.024357328 0.074417345
0.063418455 0.04625933 0.086472645 0.11346576 0.011315144 0.024173297 -0.027660567 0.0061561665
-0.025012005 -0.02120344 -0.0053539057 -0.08755794 0.07031874 -0.04289436 -0.028305495 -0.026873944
-0.022058254 -0.043826073 -0.003655659 -0.07144308 0.043727703 0.030070554 0.02974455 0.015220488
0.101777695 0.0711921 0.020585472 -0.051535856 0.009797751 0.011155867 -0.0555819 0.0037682455
-0.028837701 0.04341845 0.012535378 0.13267288 0.026483268 -0.038693678 -0.048958857 -0.032716576
-0.10836694 -0.05720423 0.005944737 -0.026330639 0.0008999993 0.08529484 0.029674117 -0.043054
-0.07959204 -0.024694823 -0.025406728 0.08874071 -0.008768058 0.044713017 0.05098628 -0.0094826305
0.06804644 0.000968052 0.0057724677 -0.043844078 0.015456739 0.02335653 -0.07729553 0.03189955
0.02838414 0.01642482 -0.03134418 0.060928535 0.004966182 -0.031971075 0.0042148954 -0.0577399
0.021263694 0.03746418 -0.0136960475 -0.0063943984 0.028207576 0.08316736 -0.07540735 0.03569032
0.006462605 -0.034352593 0.009166749 0.010300043 0.01684545 0.07883425 0.008216778 -0.008622534
0.02916282 0.015707856 0.030881269 0.0379856 0.001418408 0.095805705 -0.11570385 6.451548e-34
0.042473488 -0.04353522 -0.005855704 0.03261857 0.064528994 -0.046015058 0.02101468 0.021927996
-0.0014167121 0.0053545176 -0.040334463 0.036998704 -0.0005804143 0.017812723 0.018908203 -0.05841453
-0.030121256 0.012835756 0.0010284487 0.0044051297 -0.023799365 -0.1011885 -0.0038179762 -0.014116738
0.118109494 0.06885373 0.113567784 0.0058110673 0.022796875 0.041436363 0.062196206 -0.031084752
0.094785 -0.06608949 0.015521768 0.03711907 0.048338305 -0.023148006 -0.050005034 0.030369619
0.025618032 -0.034433145 -0.05342384 -0.030848304 0.027215363 -0.07371544 0.120891064 -0.053494643
0.16723911 -0.03745813 0.0015028581 -0.025720857 0.07894819 0.0035640153 0.08691467 -0.056071743
0.031745195 -0.041760206 0.022055354 0.023493513 -0.07121905 -0.015909888 -0.061078634 0.07280486
0.054096073 0.0564547 -0.028238641 0.020132206 0.046074804 -0.021745315 -0.034004882 -0.006801451
-0.08678649 -0.028670209 -0.055256963 -0.029979391 -0.035072356 0.09628184 0.00825438 0.024248272
0.009242316 -0.022323573 0.018530175 0.005928775 -0.00014844678 0.0424011 0.06584769 -0.039480653
-0.059193827 0.03479701 0.021663327 0.054879252 -0.021210574 0.090609424 0.015335431 -7.2593274e-34
-0.010167404 0.070075534 -0.033744756 -0.021812128 0.056093045 -0.033644058 -0.028514339 -0.065562785
0.03593085 0.10270617 -0.10118188 -0.08115347 -0.0545011 -0.012994285 -0.0020469676 -0.06027057
0.06822798 -0.05186132 -0.023009934 0.02056325 -0.06864593 0.02389079 -0.0030912063 -0.11272927
0.042355124 -0.0024117732 -0.01597005 -0.0043551885 -0.0018212881 -0.05925622 0.005305451 -0.048656136
