cxd_cache/embeddings/b224bbb56aa4c333.npy (npy, 1664 bytes, 1 tensors)

array f4 [384]
00000000: b7b8 333d 6fcb 933c 19d7 ccbc f2e7 f5bc
00000010: e18f 543d 8237 13bd 249e 313d cef8 723c
00000020: 6c99 ca3d ea40 b1bc 359d 073c dd66 b43c
00000030: 10ad 413c ba51 dc3c 51b4 bb3c db33 3a3c
00000040: 88a7 32bd 9327 7f3b 0429 3ebd ce71 4abd
00000050: cd80 193e b94a d73d fa07 393d 7878 21bd
00000060: f3c2 bfbc 430c e93b 2c20 92bd c3af 02bd
00000070: 947b e33d 1e88 5ebd f12a 6ebc 8928 263d
00000080: 97fd 063d fe47 913d 238e 4b3d ab23 ee3d
00000090: 2e07 2b3d 1ac2 45bc 51e7 44bd 9ba1 cb3b
000000a0: abb9 9cbb e124 2eba 1a70 a0bd 37ff e73c
000000b0: c644 cc3d 5127 54bc 103f fabc c8ce 713c
000000c0: fcd4 8d3c d59f 0ebd 3a6e 04bd 457d 48bd
000000d0: 8b7d f9bb 8ac8 3d3c f10d 38bd cce2 bc3d
000000e0: a956 07bd 39d3 abbc 566c 5dbb 60ea f2bd
000000f0: 0e5f 5c3d 9e89 15bc d15c c3bc 8bf7 f03c
00000100: cbb5 e03d aa2c df3c a366 d53c 6df5 0d3d
00000110: 02c5 9e3d f61c 7fbd df14 833d dc6c 50bd
00000120: 7c9d e1bc fab7 96bc f619 543d 9786 0f3d
00000130: 1330 313d 2c0d ddbc 414d a1bc fc41 55bd
00000140: 84b0 f63c b80e a53d dba4 1e3d cce2 99bc
00000150: 28d7 a0bd 8ebe 563d a48d 99bc db8d 12bc
00000160: dc3e aabc b19f 013d 5f39 59bd 68f1 25be
00000170: 817f cd3b 441a cc38 4e44 6a3c 071f 15bc
00000180: c26a 97bc 0855 59bd f0cf a0b9 7209 d93c
00000190: 0671 303d 7161 303d 2508 e13c c7a0 acbd
000001a0: 18e9 29bd 86a5 30bd ffb1 8c3c f79c b3bc
000001b0: aed8 af3d 5c65 01bc 7ae5 64bd e47d 62bd
000001c0: cf7e 33bd 9b65 bf3c e04a f43b 615a 883b
000001d0: c121 25bd a38f 9b3d d147 623d 7eaa abbc
000001e0: e398 51bc 09f0 81bc cacb b73c 706e 1fbd
000001f0: 37ba 61bc 2be9 f3bd cc2b bcbd 4a11 6589
00000200: 1053 1abd 4791 343d 3720 c43b 8339 843d
00000210: 0416 9e3d 8315 f7bc e831 363c 02be 85bd
00000220: 4162 6a3b ade5 c73c a601 9abd 7597 363d
00000230: 7d1d 0dbd 9e48 d63c 8eb0 86bd 8d30 e9bc
00000240: 0caf 67bd 5bd8 5dbc 0f3f 9a3d 8c56 bcbc
00000250: 8da6 babd ae1b d73d 4184 3fbd f821 51bd
00000260: 748a ac3d e775 a9bc dab6 22bd bc16 163d
00000270: 84b2 6bbb a3b0 c73b 6fc4 8cbd 7672 cc3d
00000280: d373 013a b792 02bd 6886 cc39 3231 653d
00000290: 61f9 d93d 8878 b6bc 20ec fcba aa93 a5bd
000002a0: 0d2b 55bd e2a9 3c3c c72a f53c 65a4 11bd
000002b0: fe9b a4bd 72ed 0abb cdf4 b03c d01f 533c
000002c0: 3fc9 d1bb 424f e5bb 9198 21bb 6d72 e03c
000002d0: 2d8a d6bc e269 cabd d059 86bd 0e54 263c
000002e0: f961 8b3a d1c7 563d 8d7c 913d 96c7 31bc
000002f0: cc01 8f3d 2c39 adbd 6b97 be3d bbe8 023d
00000300: 7fe4 583d 605e e23c 1d3e e1bd 99f0 10bd
00000310: 881e 593d 0a4b c43c 3cee f7bd aa58 05bc
00000320: b739 50bd f176 84bc ed1f ddbc f482 7fb9
00000330: b5e9 acbd 2097 adbc 3012 e23c c36b e03c
00000340: 7f66 95bd e395 febc c4a6 e8bc 25a6 6dbc
00000350: cbc2 233c 032b 663d 6f63 723d b4e5 a0bd
00000360: b61a 4f3c b77d aabc 4afd 2e3d 1e05 133d
00000370: 63db cb3d 0fe4 21bc 3759 dcbb 3439 ab07
00000380: f49a eebc cda5 46bb 7c8b 8abd 9fb5 073d
00000390: d4b8 1b3d 4da0 a9bd 562e 21bd f11b f5bb
000003a0: 6624 27bd 54f4 3abc b439 713b 4efa 98b9
000003b0: 8399 c9bc 4f76 05bd 99fb aa39 73f9 1fbd
000003c0: 3725 463d 94f9 3f3c 0015 9f3c 0724 cb3d
000003d0: 5dbb 483c 60e6 573d bec8 2bbe 66c4 8ebd
000003e0: 1825 0fbd b066 ac3c 1157 0d3d da50 1c3c
000003f0: 8ac5 953c 2a26 80bc 1553 17bd 7d26 6dbd
0.04387733 0.01804134 -0.02500491 -0.030017827 0.051895026 -0.03594161 0.043363705 0.0148298275
0.09892544 -0.021637399 0.008277227 0.022021705 0.0118210465 0.026894439 0.02291313 0.011364902
-0.0436168 0.00389335 -0.046425834 -0.04942494 0.1499054 0.10512299 0.045173623 -0.03942153
-0.023408389 0.0071120574 -0.071350425 -0.0319059 0.11107555 -0.05432903 -0.014536605 0.040566
0.032956686 0.070938095 0.0496961 0.11627897 0.041754894 -0.012070203 -0.048072163 0.006214333
-0.0047828755 -0.00066430686 -0.07833882 0.028319938 0.09974055 -0.012948827 -0.030547649 0.014758773
0.017313473 -0.034820396 -0.032331683 -0.04894759 -0.007613843 0.011583457 -0.04493517 0.092229456
-0.03304163 -0.020974742 -0.0033786497 -0.1186111 0.05380159 -0.009127049 -0.02384797 0.029414913
0.10972174 0.027242977 0.026049918 0.034657884 0.0775242 -0.06228348 0.06400465 -0.050885066
-0.027540915 -0.018398274 0.05178257 0.035040464 0.043258738 -0.02698382 -0.019690158 -0.05206488
0.030113466 0.08059448 0.038731437 -0.018784903 -0.07853538 0.05242782 -0.018744297 -0.008944954
-0.020781927 0.031646434 -0.05303323 -0.1620537 0.006271303 9.7323704e-05 0.014298512 -0.009101636
-0.018483523 -0.053059608 -0.00030672504 0.026493762 0.043076538 0.043061677 0.027469704 -0.08429103
-0.04148206 -0.043126605 0.017174719 -0.021925433 0.0858625 -0.007897701 -0.05588291 -0.05529584
-0.043822106 0.023363879 0.007455215 0.0041611646 -0.040315393 0.07595756 0.05524427 -0.02095532
-0.012792799 -0.015861528 0.022436041 -0.03892368 -0.013777307 -0.11909708 -0.09188041 -2.7573002e-33
-0.03767687 0.04408386 0.0059852856 0.06456282 0.07719043 -0.030161625 0.011120297 -0.06530382
0.003576413 0.02440151 -0.07519846 0.044578034 -0.03445195 0.026157673 -0.06576644 -0.028465534
-0.056563422 -0.013540353 0.07531559 -0.022990488 -0.09113798 0.10503326 -0.046756987 -0.051057786
0.08424845 -0.020686103 -0.039725162 0.036642775 -0.0035964558 0.006094055 -0.06873404 0.09982769
0.00049382186 -0.0318782 0.00039010053 0.05595512 0.106432684 -0.02227427 -0.0019296445 -0.08084805
-0.05204301 0.011515113 0.029927624 -0.03555717 -0.08037566 -0.0021198657 0.021601105 0.012886003
-0.006402164 -0.0069979737 -0.0024657587 0.027398312 -0.026188934 -0.09883477 -0.06560099 0.010151876
0.0010634057 0.052436654 0.07103834 -0.010850808 0.069827646 -0.0845817 0.093062244 0.03196023
0.052952286 0.027632892 -0.10998175 -0.0353857 0.053007632 0.023961563 -0.121059865 -0.008138815
-0.05083629 -0.016169997 -0.026992762 -0.00024367479 -0.084430136 -0.021190226 0.027596563 0.027395135
-0.0729494 -0.031077331 -0.028399833 -0.014504944 0.009995173 0.056193363 0.05917686 -0.078563124
0.012640646 -0.020811899 0.042722024 0.035893552 0.09953954 -0.009881034 -0.0067245024 2.5762841e-34
-0.029126622 -0.0030311227 -0.06764886 0.03313219 0.038018063 -0.08282528 -0.03935083 -0.0074801375
-0.040806197 -0.011410791 0.0036808075 -0.0002917819 -0.024609333 -0.03258353 0.00032612382 -0.039056253
0.048375335 0.011717219 0.019419193 0.09918981 0.012251702 0.052709937 -0.16775796 -0.06971054
-0.034947485 0.021045059 0.03450686 0.009540761 0.01828267 -0.015643198 -0.036944468 -0.057898033
