cxd_cache/embeddings/b3d3fa2a000dd1ec.npy (npy, 1664 bytes, 1 tensors)

array f4 [384]
00000000: fde5 60bd b544 54bd 8a54 e73c 8350 303d
00000010: 72e8 bcbc b582 653c e29c a63c 80c0 0fbd
00000020: 1666 5b3d 4840 baba c090 03bc 3c20 ecbd
00000030: d67e 84bd 9243 1cbd ba88 91bc e7cf 69bd
00000040: e20f c93b 7a93 7fbd 386a 053d a6c2 f1bc
00000050: 9c9e c93d 4787 553d 95bc e63c 45e6 c33b
00000060: d3de 08bb 163e b13c a5ca 963c df26 98bd
00000070: a249 0d3e 0947 0fbe d15e 123d 8282 063e
00000080: f527 98bc dd78 04bd d1d5 553c 4724 a83d
00000090: 0766 ad3d 81b2 3fbd 3c2a 5b3d 2b90 06bd
000000a0: e44a 003d 4aec 103d e8a3 79bc 88f8 a83d
000000b0: 0403 b53d 9a1f e03b b3e6 c8bb 7d1f 8ebc
000000c0: dfa6 f7bb 60ad 83bd 0d6a 41bd ee0f 56bd
000000d0: 74e4 22bd d5d9 8b3d 9479 c83b 9435 bd3d
000000e0: c122 5cbd 36cb 6f3a ec69 dbbc 0bc7 6cbd
000000f0: a756 80bc 3fe6 7cbd 5379 cdbc 668d c6bc
00000100: 07b6 a53d c4ff 143d 0b4c 30bd 2c88 2fbd
00000110: 9060 c53c 96cb 9d3c 8b10 8dbc 9354 323d
00000120: 561c 973d ad7d 48bd 687a d13d 242f f53c
00000130: 4181 7c3c 2f96 f6bc 1557 77bc eb81 653a
00000140: 3d85 76bc bc30 893c 2cbb 963c 014c 4c3b
00000150: 358b 7dbb 832b afbd 3fa3 1dbd f35b 4ebc
00000160: 0852 4cbd 572e 893d ef24 43bd e670 0abd
00000170: 5442 e4bc a14d 9ebd 4900 a23c 780a 0f3d
00000180: 0905 47bd 96c9 e0bc e1bc 0b3e 925d b0bc
00000190: 069c 133d c8e1 88bc 3335 2cbc 6d63 9ebc
000001a0: 2d5c 913c 6741 dbbb 8fea 9d3b a152 87bd
000001b0: b06e b03d d8fe 07bd ecb8 b7bc 784b fcbd
000001c0: feb5 a53d 6a3b 2abb da03 893d 2ca2 e73c
000001d0: ff7a 76bb 6176 693d e73d c33c 4dbb 673c
000001e0: 96a3 ec3c 9131 08bd d0af 173d f279 4ebd
000001f0: 5702 11bd c1ad f3bb 82f0 0ebc 50b4 9d09
00000200: 03bc 35bc 4045 25bd 762a a13b a496 8f3d
00000210: 9f91 383d bb17 193d 9f39 bcbc b9cf b1bc
00000220: 9cc8 72bd d9b6 a23d 908f 9cbd 163a 643d
00000230: c1eb 1a3c 2d41 a83d d645 92bc 3c7b 85bd
00000240: ac0c e83a db94 673d 245a 30bd ac61 92bd
00000250: 00a3 4b3d 3fce 9e3d ac04 edbb 5164 febd
00000260: f864 343d 04ea 663d 6cdf 533c 21a1 1cbc
00000270: 31bd b4bc 53c4 cb3c 7f29 37bd eaf8 bc3d
00000280: 3cd3 9fbd 94fe ae3d 2b07 80bd 2794 b93d
00000290: 931d eb3c aeed 05bd daa5 54bc c14e c4bc
000002a0: 851f 79bc f613 793c 30fb c2bd bc64 b3bd
000002b0: bfdb 86bc 81e8 60bd fef0 e83d 151b 48bc
000002c0: 79a3 d63c 9ffe 8b3c b849 1abd a1f2 74bd
000002d0: 8c26 3bbb 23b3 46bd a94e 6a3c b808 ca3c
000002e0: 48e7 cdbd 532d c13c 2a69 34bd 4247 2c3d
000002f0: a7ff 723d 21ba 2ebd 099f 52bd 84cc d43b
00000300: df5c 733c 1abf a23d e33b dcbd 0d92 78bd
00000310: 33ec 923d 0b13 043c cbcb 58bc 9101 7dbc
00000320: 6325 00bd 287e 10bd f106 7c3d b4d8 7bbd
00000330: cc7e 30bd e6f0 99bc 8ae8 43bd 181c 9b3b
00000340: 7239 ccbd 12f0 b737 a1da 07bd dc2c 11bd
00000350: 97da 833d 5966 fe3c 5935 713d 05f2 473d
00000360: 9180 cfbd 4de9 78bd 4989 dabc 934a 373d
00000370: 0a42 4a3e 960b 453c 735b 4ebd 0d1c b089
00000380: 8f54 133c 7cd8 29bd c513 54bd 457b a4bc
00000390: 88b6 9e3c bb08 623c bf45 a1bd c824 393d
000003a0: c1e6 2bbd 4de8 e6bc 0c14 153c d747 443d
000003b0: d814 8b3d a379 e0bb 21c4 49bd 19d5 fe3b
000003c0: 2e61 3c3d 5044 b9bc da4f 973c e5cf 0d3c
000003d0: ed8c e43c aae9 5bbd fbe7 9fbd 6c04 d9bc
000003e0: 598b d7bb e164 d23d 97b2 0f3d ef0d 373d
000003f0: feeb 453d 0a95 b43d 4553 99bd 70e6 493c
-0.054906834 -0.051823337 0.028238554 0.043045532 -0.023060057 0.014008214 0.02033848 -0.03509569
0.053564154 -0.0014209831 -0.008030117 -0.11529586 -0.064695045 -0.038150378 -0.017765392 -0.057083037
0.0061359266 -0.062396504 0.032572 -0.02951176 0.098447055 0.052130964 0.028166095 0.005978378
-0.0020884767 0.02163605 0.018407175 -0.07429289 0.1379762 -0.13991942 0.035734955 0.13135722
-0.01857374 -0.032341827 0.013051466 0.08210044 0.08466726 -0.046801094 0.053507075 -0.032852333
0.03132142 0.035381593 -0.015236832 0.082505286 0.08838466 0.0068397047 -0.006131017 -0.017349
-0.0075577344 -0.06429553 -0.04722028 -0.052261285 -0.03976865 0.068286575 0.006118009 0.09238735
-0.05374408 0.0009147407 -0.026783906 -0.05780701 -0.015666319 -0.061743017 -0.025082266 -0.024237346
0.080913596 0.03637673 -0.04304127 -0.042854473 0.024093896 0.019262116 -0.017219802 0.043537688
0.073784515 -0.04894798 0.10228425 0.029929705 0.015411676 -0.03010091 -0.015096446 0.0008755016
-0.015046415 0.016746871 0.018399797 0.0031173232 -0.003868771 -0.08553221 -0.03848576 -0.012595165
-0.04988292 0.06698292 -0.047642644 -0.033799075 -0.027863659 -0.0772965 0.019775527 0.034922093
-0.048588786 -0.027439874 0.1364627 -0.021528993 0.036037467 -0.016709223 -0.010510731 -0.01933452
0.017744148 -0.006691146 0.0048192213 -0.06607557 0.08614862 -0.033202022 -0.022427045 -0.12319082
0.08091353 -0.0025975355 0.06690188 0.028275572 -0.0037609932 0.05699766 0.023833228 0.014143777
0.028886598 -0.033250395 0.037032902 -0.050409265 -0.035402622 -0.0074364846 -0.008724334 3.796594e-33
-0.011092189 -0.040349245 0.004918392 0.07011154 0.04506075 0.037376147 -0.022976695 -0.021705495
-0.059273347 0.07945032 -0.0764457 0.055719458 0.009455622 0.08215556 -0.017855566 -0.06517646
0.0017703972 0.056538444 -0.043054715 -0.07147536 0.049715996 0.07754182 -0.007233223 -0.124214776
0.044041604 0.05637552 0.012931686 -0.0095599005 -0.02206287 0.024873888 -0.044717308 0.09227164
-0.07803962 0.08544651 -0.06251367 0.09061461 0.028700626 -0.032697372 -0.012978995 -0.023963334
-0.015205269 0.015202513 -0.095205665 -0.08759448 -0.016462205 -0.054909233 0.113740906 -0.012213488
0.026200997 0.017089186 -0.03766796 -0.0598017 -0.0028556911 -0.04851068 0.014300981 0.02466236
-0.10053879 0.023581183 -0.044045605 0.042060144 0.05932584 -0.042657975 -0.0514212 0.0064941067
0.014853685 0.07946606 -0.1075361 -0.06068616 0.07173958 0.008061181 -0.013232182 -0.015442268
-0.031285655 -0.035276562 0.061530057 -0.06148596 -0.043089673 -0.018791627 -0.04782919 0.0047335736
-0.09971894 2.1927091e-05 -0.033167485 -0.03544317 0.06438177 0.031054663 0.058888767 0.048814792
-0.10131944 -0.060769368 -0.02667679 0.044748854 0.19751754 0.012026688 -0.05038018 -4.2396838e-33
0.008992328 -0.04146622 -0.051776666 -0.02007831 0.019374147 0.013796027 -0.07874631 0.045201093
-0.04196811 -0.028186942 0.009099018 0.047920074 0.06791085 -0.0068504377 -0.04925931 0.007776868
0.045991115 -0.022615582 0.018470693 0.008655523 0.02789923 -0.053689636 -0.07807919 -0.026491366
-0.006577891 0.102731474 0.035082426 0.044691022 0.048320763 0.088174894 -0.074865855 0.012323007
