cxd_cache/embeddings/b5e2d1ff4cd820aa.npy (npy, 1664 bytes, 1 tensors)

array f4 [384]
000000 75 e5 ea bb b9 d4 7d 3c 60 a2 2e bd 25 c3 84 3c
       -0.0071684667 0.015492612 -0.04263532 0.016206333
000010 f0 0e 09 bd f6 cb 39 bd 5b 45 b0 3d 78 93 f1 3c
       -0.03346151 -0.045360528 0.086069785 0.029489264
000020 da a5 8b bd f2 a0 ca bc 73 fc 04 be dc f9 98 3c
       -0.06818743 -0.024734948 -0.12986927 0.01867383
000030 f7 94 31 3c ff 42 43 3d b7 9a 91 bd 3d e4 88 3d
       0.010838739 0.047671314 -0.07109588 0.06684158
000040 18 fe b2 bc ad 5a a0 bc 33 3b a1 3b a9 47 24 bd
       -0.021849677 -0.019574488 0.004920387 -0.040107403
000050 5e a0 9d bd 59 9c 4d 3b d7 e5 98 3c 25 f2 35 bd
       -0.07696603 0.0031373708 0.018664284 -0.04442038
000060 c1 dc 7e bd ca 16 12 3b 59 a5 26 3d 2b c7 9a 3c
       -0.062222246 0.0022291415 0.04068503 0.018893799
000070 2f 8f 25 bd 77 0d 60 bd 50 cf 72 bd 13 63 d9 3d
       -0.040419754 -0.05470034 -0.05927974 0.106146
000080 79 e0 c3 3c 06 d5 d3 3c d1 17 09 3c 27 32 83 3d
       0.023910748 0.025858413 0.008367495 0.0640605
000090 9b 44 a5 bc f2 b3 02 3e 34 9e ec 3d 3b 84 e2 3b
       -0.020174315 0.12763956 0.11553612 0.0069127358
0000a0 fc ae 23 bd 0e b3 63 bd 59 93 bb 3c 6b 2a 00 bc
       -0.0399618 -0.05559068 0.02289741 -0.007822613
0000b0 5b ce 13 3c 39 2f 24 bd 6a 6f 4a 3d 5a 58 6d bd
       0.009021367 -0.040084098 0.04942266 -0.057945587
0000c0 8b bf a8 3d 81 a7 95 bb 2d e9 d4 bd fd d6 7a bd
       0.08239659 -0.004567087 -0.10396037 -0.061240185
0000d0 0d 26 80 3c cc a5 1c 3d 82 ee 75 3d c8 59 88 3d
       0.015643144 0.038244054 0.060041912 0.066577494
0000e0 10 2b 6f 3c 41 47 78 3d c5 52 52 bc 80 84 09 3d
       0.014597669 0.060614828 -0.012837117 0.033573627
0000f0 04 da 25 bd 49 fe 92 3c c8 df 6a bd 26 6a 1d bd
       -0.04049112 0.017943518 -0.05734232 -0.03843131
000100 71 7d d3 3c fc 0c 5b bc cd 75 5d bd 77 55 2d 3d
       0.025816651 -0.013369795 -0.05406742 0.042317834
000110 c6 f4 1a bd ef 82 f8 bd c8 5f 9b bd d2 05 f2 bc
       -0.03783109 -0.121343486 -0.07586628 -0.029543791
000120 e6 d7 c8 bd 90 f5 5a 3c 38 37 a8 3d 3d 78 5c bd
       -0.09806804 0.013364211 0.08213657 -0.053825606
000130 86 32 22 bb f7 d4 0e 3c 46 21 63 3c f6 16 90 bd
       -0.0024749353 0.008717767 0.0138629135 -0.070356295
000140 1a 36 83 3c 58 7c 8a bd 60 5d c9 bd b2 7e 5e 3d
       0.016017009 -0.06761998 -0.09832263 0.054320045
000150 85 f9 92 bc 21 61 ba bc ad 3b 61 bd 87 55 ac 3c
       -0.017941246 -0.022751393 -0.054988552 0.021036876
000160 be dd 40 3d 6f 75 d5 bb 21 24 b8 bb bb 07 10 be
       0.04708647 -0.0065142433 -0.0056195413 -0.14065449
000170 8e fb 89 bb e2 d6 cb bb 5c d5 3c 3c 8c 17 15 3d
       -0.004210896 -0.0062206844 0.011525478 0.03639941
000180 c4 a2 85 3c 60 24 6f bc 83 74 2b 3b be 12 44 3c
       0.016312964 -0.014596075 0.0026161976 0.011967359
000190 01 6f b8 bb 73 f7 c6 bd 26 3c 26 bc 1f 8a 82 3d
       -0.005628467 -0.09715166 -0.010146176 0.06374001
0001a0 71 41 56 bd e5 b9 89 3b bc 63 dc 3b 71 c3 9d 3d
       -0.052308504 0.0042030686 0.0067257565 0.07703293
0001b0 72 f6 26 3d de ec 8c 3c e1 2f 3a bd d9 0d b1 3d
       0.040762372 0.01720279 -0.045455817 0.08645219
0001c0 ca 27 e7 bd d9 8b f0 3c 97 29 6d bb fc 9a 5a 3d
       -0.11286886 0.02936356 -0.003618812 0.05337046
0001d0 4c 43 f5 bc f5 42 75 3d 20 bc d3 bc b3 2d 19 3d
       -0.029939316 0.05987831 -0.02584654 0.037397098
0001e0 af ba 7a 3b 51 33 eb 3d 2d 5d 48 bd e3 59 b7 bb
       0.0038258245 0.11484397 -0.048916984 -0.005595432
0001f0 4d de df 3b 1a 00 80 bd 0a f9 ef 3c 25 d8 32 09
       0.0068319202 -0.06250019 0.029293556 2.1527601e-33
000200 c4 fb c3 bc 09 d0 60 3d 5a 1c 9f bc c0 1a 0d 3e
       -0.023923762 0.054885898 -0.019422699 0.13779736
000210 4d b5 22 3d 6e e1 82 bb 9e 8b f5 bc 1e 5f ed 3b
       0.039723683 -0.0039941585 -0.029973801 0.007244005
000220 e3 e1 84 3d 6a 10 38 bc 52 79 b7 bc 61 54 ef 3d
       0.06488397 -0.011234382 -0.022396717 0.11686016
000230 8e 94 02 bc 1e 52 74 bd 8b df 34 bc 2a 1a b4 bc
       -0.0079699885 -0.059648626 -0.011039625 -0.021985132
000240 3a fe b6 bd 84 e2 21 3c 12 94 0e bd 25 49 39 3d
       -0.089352086 0.009880666 -0.03480918 0.04523577
000250 94 52 d7 3a 50 41 7e 3c a3 f8 48 bd 42 c2 3a 3c
       0.0016427808 0.015518501 -0.049065243 0.011398854
000260 e0 15 dd bc 37 24 b3 bc 9e 34 6f 3d ff 4d 2e 3b
       -0.02698797 -0.021867855 0.05839979 0.0026596782
000270 21 3a 42 3d 5e 79 15 3d b4 0a 72 bc b2 4b 7a 3c
       0.047418717 0.036492698 -0.01477306 0.015276836
000280 53 fb 2b bb 18 d2 40 bd 96 d6 df 3d f3 09 ac 3d
       -0.002624233 -0.04707536 0.10929601 0.08400335
000290 e3 97 90 bd e5 70 cf bd a5 7b cb 3d fb bf 71 3b
       -0.0706022 -0.10128955 0.09935693 0.003688811
0002a0 fc 41 9c bd 2d fd 24 3c 2c a2 e6 3c 81 7e 11 3c
       -0.07629773 0.010070127 0.028153501 0.008880259
0002b0 12 62 93 bc a9 42 fe bc fb 1e 9b 3d da 53 ee 3c
       -0.0179911 -0.031037645 0.075742684 0.029092718
0002c0 5a 6e ce 3c fa cb c1 3d 96 23 b8 3c a5 8f d9 bc
       0.025199104 0.094627336 0.022477906 -0.026557753
0002d0 56 8b d5 3d 9c 21 19 3c 37 d7 7d 3d d1 0d 89 3d
       0.10426967 0.009346392 0.061972823 0.066920884
0002e0 8b 4c 1d 3d e0 55 44 bc ff f9 be 3c b9 9e e5 3c
       0.038403075 -0.011983365 0.023312567 0.028029786
0002f0 f5 05 f4 3c a0 49 76 3d df 40 1e bd 83 7c 68 bc
       0.029787997 0.060128808 -0.038636085 -0.014189842
000300 b7 ea 5c 3b 68 88 d3 3c df 15 06 bd 69 5b 89 3d
       0.0033709237 0.02582188 -0.0327357 0.06706888
000310 20 5d 7a 3d 69 ac 72 3c 89 70 c1 3c 02 c0 a5 3d
       0.061123967 0.014811614 0.023613231 0.08093263
000320 ad 60 84 3c a7 a2 0d bc 72 08 c1 bd 27 97 54 3d
       0.01615938 -0.008644736 -0.09425439 0.051901963
000330 9c 87 fd bc e8 4c bc bc 84 de 40 bd f7 43 71 3c
       -0.030948453 -0.02298589 -0.047087207 0.014725677
000340 28 a9 24 bd a8 ed 4d 3d a8 1a 98 bc 6b 68 67 bd
       -0.040200382 0.050275475 -0.018567398 -0.056496065
000350 ee c0 b1 3d 95 a9 d9 3c bc 9c 51 3d da 77 df bc
       0.086793765 0.02657012 0.051174864 -0.02727883
000360 9b f4 1f 3c 2c 66 c4 3c 5b a1 20 bd 28 b0 c6 bc
       0.009762908 0.0239745 -0.03921638 -0.02425392
000370 f2 71 fe bc 14 35 74 3d 28 3a cd bc 33 46 88 89
       -0.031060193 0.05962093 -0.025052145 -3.2806824e-33
000380 f6 4a 9c bd 23 54 4f bd b9 bc 00 bd b3 13 c0 3d
       -0.07631485 -0.05061735 -0.03142998 0.09378757
000390 af 66 df 3d 47 f6 34 bd 66 cd 28 3d de e8 e7 bc
       0.10908257 -0.04418018 0.04121151 -0.028309282
0003a0 14 02 5e 3d ac 3d 9a 3d 52 b2 a4 bc fa 7b a2 bc
       0.0542012 0.07531294 -0.020104561 -0.019834507
0003b0 39 f7 44 bd 34 de bb 3c 32 ff 51 3c f3 08 36 bb
       -0.048087332 0.022933103 0.012817191 -0.002777633
0003c0 a5 ca 04 be 26 7a 41 3d 7c 4f 28 bd 78 61 03 3d
       -0.12967928 0.04723563 -0.041091427 0.032075375
0003d0 de 35 fb 3b b9 01 85 bc b2 95 d1 bd fb 7c 9d 3d
       0.0076663336 -0.016236173 -0.1023363 0.07689854
0003e0 51 0d 44 3b 45 6d e5 3c 72 d0 8e bd 10 9a 4e bc
       0.0029915164 0.028006205 -0.069733515 -0.012609974
0003f0 1b 38 7d bd 26 5f 06 bc 79 3f ee bb 9c 7a f6 bc
       -0.061821084 -0.008201396 -0.00727075 -0.030087762
