cxd_cache/embeddings/b8b347b60928d14b.npy (npy, 1664 bytes, 1 tensors)

array f4 [384]
0	0xbd74bc68	-0.05974999
1	0x3c9d4c7a	0.019201506
2	0xbd857045	-0.06515554
3	0x3c3f18c8	0.011663623
4	0xbd9ced76	-0.076624796
5	0xbd9a25dc	-0.07526752
6	0x3c76743b	0.01504236
7	0x3cd2e7ef	0.02574536
8	0xbcda017e	-0.02661204
9	0xbceb9d1d	-0.02876144
10	0xbd5a0f9d	-0.053237546
11	0xbd07fd18	-0.033200353
12	0x3d499247	0.049211767
13	0xbd3015b2	-0.04298944
14	0x3d421098	0.047379106
15	0x3a04aa31	0.0005060761
16	0xbc218f39	-0.009860807
17	0xbca5ae29	-0.020224648
18	0xbcba8244	-0.022767194
19	0xbc152125	-0.009102141
20	0x3d93083c	0.07179305
21	0xbbd181d8	-0.0063936524
22	0xbd8128f8	-0.06306642
23	0xbd8ec33e	-0.06970833
24	0xbd346695	-0.044043142
25	0x3d799132	0.060929485
26	0x3c9e20d3	0.019302761
27	0xbd905b65	-0.07048682
28	0x3dac82b5	0.08423368
29	0x3ccb3bb3	0.02480874
30	0x3c0fa601	0.008767606
31	0x3d9dcdf2	0.077052966
32	0x3d5d2532	0.05399055
33	0x3e198583	0.14992337
34	0xbc29d7d0	-0.010366395
35	0x3d8e446d	0.06946645
36	0x3d34ef99	0.04417381
37	0xbd85cefe	-0.06533621
38	0x3ccdde21	0.025130333
39	0xbcc3dd56	-0.023909252
40	0xbdbece5f	-0.09316706
41	0xbb7d0774	-0.0038609179
42	0xba80af79	-0.000981792
43	0xbce96f14	-0.028495349
44	0x3d8048e4	0.06263903
45	0xbd3fb388	-0.046802074
46	0xbd9875b8	-0.07444328
47	0xbc85985e	-0.016308006
48	0xbd4da30e	-0.05020433
49	0xbd18bb22	-0.03728784
50	0xbdc7a8b6	-0.09748976
51	0xbdae82d3	-0.085210465
52	0xbd259b79	-0.040431473
53	0x3bd0a6d8	0.0063675456
54	0x3d3f243d	0.04666542
55	0x3dc30147	0.09521728
56	0x3c3cc9fd	0.011522767
57	0xbb7c7578	-0.0038522165
58	0xbcb604e2	-0.022219125
59	0xbd616aac	-0.05503337
60	0x3c8bb81e	0.017055567
61	0xbc492d1c	-0.012278821
62	0xbd8d5967	-0.06901818
63	0x3d9f7f15	0.07787911
64	0x3d9f3801	0.07774354
65	0xbc89f9b8	-0.016842708
66	0x3cff6a01	0.031178476
67	0xbd859501	-0.06522561
68	0x3de73028	0.11288482
69	0xbdbe130e	-0.09280978
70	0xbd68ad84	-0.056806102
71	0xbd3d7621	-0.046255235
72	0xbcaefcfa	-0.021360863
73	0x3d89d1ef	0.06729495
74	0x3c17f821	0.009275467
75	0x3d8cf4d9	0.068826385
76	0xbd02a843	-0.031898748
77	0x3c526421	0.012841255
78	0xbc91f18d	-0.017815376
79	0xbdbaa660	-0.09113765
80	0xbcf70ca4	-0.030157395
81	0x3d07ce4b	0.03315572
82	0xbc172b45	-0.009226625
83	0x3e2879bc	0.16452688
84	0x3d8270c2	0.06369163
85	0x3cbf1fb6	0.02333055
86	0x3d379c58	0.044826835
87	0xbdc8bd75	-0.09801761
88	0x3d86262f	0.06550252
89	0x3d141798	0.036155313
90	0x3d540291	0.05176026
91	0xbdd2bf89	-0.10290439
92	0xbc9a09f2	-0.01880357
93	0xbd46aade	-0.048502795
94	0x3d73cc19	0.059520815
95	0x3dbbb8ea	0.09166129
96	0xbcf6d7f0	-0.030132264
97	0xbddfd8c2	-0.10930015
98	0x3d3f846e	0.046757154
99	0x3bf1be2c	0.0073774066
100	0x3d118d90	0.035535395
101	0x3cd7fc1e	0.026365336
102	0xbc420aad	-0.011843366
103	0xbcbac068	-0.022796825
104	0xbda17401	-0.07883454
105	0x3d49e10f	0.0492869
106	0xbc495f41	-0.012290777
107	0x3bdd79a2	0.0067588845
108	0xbaf824f0	-0.0018931907
109	0xbcd659a0	-0.026165783
110	0xbda621be	-0.081119046
111	0x3d4b06e2	0.04956711
112	0x3d7949b3	0.0608613
113	0xbe0948ab	-0.13406627
114	0x3d15c325	0.036563057
115	0xbd7a44ee	-0.061100893
116	0x3d291a06	0.041284584
117	0xbc90a8c6	-0.017658602
118	0x3b81ee2d	0.0039651603
119	0x3d3aefc2	0.045638807
120	0x3c985ec3	0.018599873
121	0x3d9eb608	0.077495635
122	0xbd8abdd8	-0.06774491
123	0xbda18fd5	-0.07888762
124	0x3d380707	0.044928577
125	0x3ca8c246	0.02060045
126	0xbdcce77c	-0.1000509
127	0x0869e1f0	7.0381475e-34
128	0x3cbef15d	0.02330845
129	0xbc80a989	-0.01570584
130	0x3c3f502f	0.011676832
131	0x3c399423	0.011326822
132	0xbcfbfcca	-0.030760188
133	0x3ae67dfd	0.0017585155
134	0x3d0e39b5	0.034723002
135	0x3d39f28f	0.045397338
136	0xbd8965b5	-0.06708852
137	0x3da265ec	0.07929596
138	0x3d00cd7f	0.031445976
139	0x3d9c0c7d	0.076195695
140	0xbd8f5d6b	-0.0700024
141	0x3ce3d1e3	0.027810043
142	0x3e068f5e	0.13140628
143	0x3d3568db	0.04428945
144	0xbd627012	-0.05528266
145	0x3cfb2ee9	0.030662017
146	0x3af61158	0.0018773479
147	0x3c6ab723	0.01432589
148	0xbd098489	-0.03357366
149	0xbd715abe	-0.05892443
150	0x3d42537f	0.04744291
151	0xb9b8f442	-0.000352772
152	0x3de72777	0.11286824
153	0x3d08bbb2	0.033382125
154	0xba3e7cba	-0.00072665105
155	0xb7c9c122	-2.4051002e-05
156	0xbd4a1a19	-0.049341295
157	0x3af0a07c	0.0018358375
158	0xbd77576d	-0.06038611
159	0xbd6d79ad	-0.057977367
160	0xbdaaf2e6	-0.083471105
161	0x3cfd5c63	0.030927842
162	0xbcd0c92f	-0.025486557
163	0x3d8106f9	0.06300158
164	0x3c058fa9	0.008151927
165	0xbd0f854d	-0.035039235
166	0xbcaae1c8	-0.020859614
167	0xbcf52ef7	-0.029929621
168	0xbd8dd410	-0.06925213
169	0xbc8f9399	-0.017526435
170	0xbcb986fb	-0.022647372
171	0xbcc8056b	-0.024416646
172	0x3d32be50	0.043638527
173	0xbd248b9a	-0.040172197
174	0xbd83e60d	-0.06440363
175	0xbd05cc3d	-0.03266548
176	0x3d5ae0ed	0.053437162
177	0xbd4cab2d	-0.049967933
178	0x3d9e560c	0.07731256
179	0x3d58189f	0.052757856
180	0x3dc9c94a	0.09852846
181	0x3d31f117	0.04344281
182	0x3da38572	0.07984437
183	0x3ce58643	0.028018123
184	0x3bbe9954	0.005816618
185	0x3a23c150	0.00062467624
186	0xbb822b38	-0.003972437
187	0x3e10a35f	0.14124821
188	0xbceb058e	-0.028689172
189	0xbdb8bf68	-0.09020883
190	0xbc4c566f	-0.012471779
191	0x3c030db6	0.007998874
192	0x3d161c3c	0.03664802
193	0x3c883a8c	0.01662948
194	0xbd1fef30	-0.039046466
195	0x3d31ce22	0.043409474
196	0x3d671d5f	0.056424495
197	0x3d1edfca	0.03878764
198	0x3c677915	0.014127989
199	0xbc81b5ae	-0.015833702
200	0xbccd3de2	-0.025053922
201	0xbc3ea86b	-0.011636834
202	0xbb9e85db	-0.004837734
203	0xbd4c9b1e	-0.04995262
204	0xbcd958b7	-0.02653156
205	0xbcb619a6	-0.022229027
206	0x3c3fead2	0.0117137
207	0xbc24ba26	-0.010054147
208	0xbd7ba11c	-0.061432943
209	0xbc89c1b4	-0.016815998
210	0x3d7d60ed	0.061860014
211	0x3d61759f	0.055043813
212	0xbc5c7358	-0.0134552345
213	0xbbb892b4	-0.0056327228
214	0x3d58cc8f	0.052929457
215	0xbd47d8b4	-0.04879065
216	0xbd0d3310	-0.034472525
217	0xbc53b2a9	-0.012921014
218	0xbb43e947	-0.0029893683
219	0x3b3c1111	0.0028696696
220	0x3b785636	0.0037893183
221	0xbaf3d907	-0.0018604108
222	0x3d04f1ef	0.03245729
223	0x893f7f90	-2.3050768e-33
224	0x3d16eb0f	0.036845263
225	0xbd633270	-0.055468023
226	0xbd892843	-0.066971324
227	0xbbbc8714	-0.0057534073
228	0xbc9d16ef	-0.019175975
229	0xbdbaca0e	-0.0912057
230	0xbdb6ddea	-0.089290455
231	0xbe06060a	-0.13088241
232	0xbd151d83	-0.036405098
233	0x3ca40421	0.0200215
234	0xbd312661	-0.04324949
235	0x3d17eeea	0.03709308
236	0x3d9e9fcd	0.07745323
237	0xbd9644b4	-0.07337323
238	0xbc891e4d	-0.016738081
239	0x3d3a180a	0.04543308
240	0xbd02041f	-0.03174221
241	0xbe132922	-0.1437116
242	0x3c3c7075	0.011501421
243	0x3d99c31f	0.075079195
244	0x3cc36579	0.023852097
245	0x3d5d26a1	0.053991918
246	0xbdaf9cb2	-0.08574809
247	0xbb4e4678	-0.0031475108
248	0x3baf8d17	0.0053573954
249	0xbcac416f	-0.021027295
250	0xbd3c80fa	-0.04602144
251	0x3c7e7b55	0.015532334
252	0x3c7eeb55	0.015559037
253	0x3cbb897d	0.022892708
254	0xba820081	-0.0009918363
255	0xbd31c392	-0.0433994
