cxd_cache/embeddings/b8e82499b6ae0c48.npy (npy, 1664 bytes, 1 tensors)

array f4 [384]
0	0xbd8629ea	-0.06550963
1	0xbd3e6ce4	-0.046490565
2	0x3ac3cf3b	0.0014939079
3	0xbc72cf3f	-0.014819919
4	0xbd6850eb	-0.056717794
5	0xbcde6624	-0.027148314
6	0x3de38c2a	0.111107185
7	0x3c26ac5d	0.010172931
8	0xbcabea2f	-0.02098569
9	0x382e3610	4.1535182e-05
10	0x3d975136	0.07388537
11	0xbd8dcebe	-0.069241986
12	0xbc58b9ae	-0.013227863
13	0xbcfc47f5	-0.03079603
14	0x3d1def9c	0.038558587
15	0x3c96beac	0.018401466
16	0x3dac92f6	0.08426468
17	0xbd095934	-0.033532336
18	0x3d06d868	0.032921225
19	0x3d174c87	0.036938217
20	0xbde01485	-0.10941414
21	0xbd94f625	-0.07273511
22	0xbc96c036	-0.0184022
23	0xbd70c7ac	-0.058784172
24	0xbdb6ac3d	-0.089195706
25	0xbcf7699f	-0.030201731
26	0xbcb6411d	-0.022247845
27	0xbc94d99c	-0.01817017
28	0x3d8c7296	0.06857793
29	0xbb856a45	-0.004071506
30	0x3d3cb026	0.046066426
31	0x3da33089	0.07968242
32	0x3ce657cc	0.028118037
33	0x3c8065e2	0.015673582
34	0xbc1cf776	-0.009580484
35	0x3ccd4210	0.025055915
36	0x3d140a03	0.03614236
37	0xbd4d5071	-0.050125543
38	0xbd950cde	-0.07277845
39	0xbc6776ec	-0.014127474
40	0xbd5e8558	-0.054326385
41	0xbda4c0be	-0.08044575
42	0xbd42db4a	-0.04757241
43	0x3c77a2fe	0.015114544
44	0x3c518f20	0.012790471
45	0x3d136dc9	0.03599337
46	0xbd1eca11	-0.038766924
47	0x3d2ffdab	0.042966526
48	0xbd04121d	-0.032243837
49	0xbc6d8440	-0.014496863
50	0xbbb05689	-0.0053814095
51	0x3ab988e6	0.0014155179
52	0x3d030208	0.03198436
53	0xbd27078a	-0.040778674
54	0x3d3b7b7b	0.045772057
55	0x3dcbef8a	0.09957798
56	0x3d2ce78d	0.04221301
57	0x3d937479	0.0719995
58	0x3c8ee308	0.017442241
59	0x3d15f1f2	0.03660769
60	0xbd045429	-0.032306824
61	0xbd2d1ab7	-0.042261805
62	0xbdb2125a	-0.086949065
63	0x3d8421ac	0.06451735
64	0x3d8ad919	0.06779689
65	0x3d88490c	0.066545576
66	0xbcc4268b	-0.02394416
67	0xbdfcc422	-0.12342097
68	0xbd6af093	-0.057358336
69	0xbcfb24ec	-0.030657254
70	0xbbe685d5	-0.007034997
71	0xbb3fa34c	-0.002924162
72	0x3da1cefd	0.07900808
73	0x3d0b8b92	0.03406865
74	0x3ddb950c	0.10721788
75	0x3c8b7df7	0.017027838
76	0xbd23817f	-0.03991842
77	0xbdf31f84	-0.118712455
78	0x3b848234	0.0040438417
79	0xbddc62e1	-0.10761047
80	0xbcdea08a	-0.02717616
81	0x3cc07ae1	0.023496093
82	0xbd00e53d	-0.03146862
83	0x3c67f79b	0.014158155
84	0x3d3d5034	0.046219066
85	0x3dd85f12	0.10565008
86	0xbd09019c	-0.0334488
87	0xbdacc37b	-0.084357224
88	0xbd55e9a3	-0.052224766
89	0x3d2758e4	0.040856257
90	0xbc9489ad	-0.018132055
91	0xbd7fc334	-0.06244202
92	0x3c812e3f	0.015769122
93	0xbbe84697	-0.007088493
94	0xbd6d1f39	-0.057891104
95	0x3d99d5cf	0.07511484
96	0xbd1db1eb	-0.038499754
97	0x3c434f49	0.0119207585
98	0xbdc05496	-0.093911335
99	0x3d76d205	0.060258884
100	0xbc9a768d	-0.018855358
101	0x3c8a3bf1	0.016874285
102	0xbd1799b8	-0.037011832
103	0x3bf8acf3	0.0075889765
104	0xbc74bc7e	-0.014937518
105	0xb8ac3460	-8.211355e-05
106	0x3c78e842	0.015192093
107	0xbdc235ff	-0.09482955
108	0xbd4494bf	-0.047993418
109	0x3cd76d42	0.026297215
110	0xbd6b5036	-0.057449542
111	0xbd86a7d0	-0.065749764
112	0x3d403cf9	0.046933148
113	0xbd399726	-0.045310162
114	0xbc95c17b	-0.018280735
115	0xbb9d5bf9	-0.0048022238
116	0xbc63a524	-0.013894353
117	0x3cb14993	0.021641528
118	0x3c98913e	0.018623944
119	0x3caa32ac	0.020776115
120	0x3d7fb8c8	0.06243208
121	0xbd63f816	-0.055656515
122	0xbd8c495e	-0.06849931
123	0x3bd1b1ac	0.006399354
124	0x3bd8ece0	0.0066200346
125	0x3cbd6f72	0.02312443
126	0xbc3f9765	-0.01169381
127	0x089ce0c1	9.441748e-34
128	0xbbe7d111	-0.007074483
129	0x3ca5b69c	0.020228676
130	0xbb8779c5	-0.004134389
131	0x3d415519	0.047200296
132	0xbb31cfea	-0.0027131983
133	0x3d0ef2f6	0.034899674
134	0x3c9e8936	0.019352537
135	0x3cdf7d76	0.027281504
136	0xbe0ed9be	-0.1395025
137	0x3b8c2915	0.0042773583
138	0x3d9a2089	0.07525737
139	0x3cfe70aa	0.031059582
140	0xbd34f847	-0.04418209
141	0x3df479c1	0.11937285
142	0x3c9f4aec	0.019444905
143	0xbb53d470	-0.0032322668
144	0xbca2e936	-0.019886594
145	0x3d9cc0ae	0.07653938
146	0x3bc1513e	0.0058995774
147	0x3a680586	0.0008850921
148	0x3d8e46f5	0.06947128
149	0x3d6a4465	0.057194132
150	0xbad822a3	-0.0016489815
151	0xbd8bcd48	-0.06826264
152	0xbc12863c	-0.008943137
153	0x3cd27c6c	0.025694095
154	0xbd10bfa7	-0.035339024
155	0x3d2eabb4	0.042644218
156	0x3d39e18e	0.04538112
157	0x3d4635bf	0.0483911
158	0xbd5bc57b	-0.05365513
159	0x3d121cad	0.03567188
160	0xbd81f42c	-0.063454
161	0x3d5c4b30	0.053782642
162	0xbd0badbe	-0.03410124
163	0xbbab3fc2	-0.0052261064
164	0x3d850491	0.064950116
165	0xbd4afd8d	-0.04955821
166	0xbd7942a2	-0.06085456
167	0xbc3eab18	-0.011637472
168	0x3c885428	0.016641691
169	0xbd1f9f70	-0.03897041
170	0xbd463644	-0.048391595
171	0x3c64c79e	0.013963608
172	0xbdfb5e1d	-0.1227381
173	0xbd235f4f	-0.039885815
174	0x3d20ac68	0.03922692
175	0x3ca46abb	0.020070424
176	0x3d1e1875	0.038597543
177	0xbd1651bf	-0.036699053
178	0x3c5fd4dd	0.01366159
179	0x3c8711d3	0.016487991
180	0x3c88d96c	0.016705237
181	0x3cc7c0ac	0.024383865
182	0xbcecce79	-0.028907048
183	0xbc92ee18	-0.017935798
184	0xbda45203	-0.08023455
185	0x3baef42a	0.005339165
186	0x3ca7328d	0.020409847
187	0xbc32f5c5	-0.010922854
188	0x3c4ea843	0.012613359
189	0x3d96b8bc	0.07359454
190	0xbd55d906	-0.052208923
191	0x3c2a5ec2	0.010398569
192	0xbce45b74	-0.02787564
193	0xbbedc9ba	-0.0072567137
194	0x3c056df1	0.008143888
195	0xbd8e0331	-0.069342025
196	0x3dbce976	0.09224217
197	0x3c5bd91e	0.013418464
198	0x3d1e2b74	0.03861566
199	0x3bbb9297	0.005724262
200	0xbd932f6f	-0.071867816
201	0xbc96d734	-0.018413164
202	0x398a778b	0.00026410478
203	0xbc86bbfa	-0.016447056
204	0xbd11e196	-0.035615526
205	0x3c8f7082	0.017509703
206	0x3a4d681b	0.00078356423
207	0xbc642d72	-0.013926851
208	0x3d38f8d5	0.04515918
209	0x3cab4774	0.020908095
210	0x3cc59d0b	0.024122735
211	0x3d83c078	0.06433195
212	0x3c70176d	0.014654023
213	0xbddbacc4	-0.10726312
214	0xbd16c2d3	-0.036806893
215	0xbc59729e	-0.013271956
216	0xbd8b2e8b	-0.06795987
217	0xbbf10acb	-0.007356023
218	0x3dfb7524	0.12278202
219	0x3b0ad12a	0.00211818
220	0x3d0e3070	0.034714162
221	0x3d936731	0.071974166
222	0x3c7170c1	0.014736355
223	0x89469a51	-2.3905942e-33
224	0xbd61d0a6	-0.055130623
225	0xbc8f9395	-0.017526427
226	0xbc929b90	-0.017896444
227	0x3d7b9187	0.061418083
228	0x3baf0cf9	0.0053421226
229	0xbdb4e551	-0.08832801
230	0xbcd0e5ae	-0.025500145
231	0xbc809e87	-0.015700592
232	0xbadd38e9	-0.0016877922
233	0xbd62f1a4	-0.055406228
234	0x3cfaf626	0.03063495
235	0xbd4cb7e6	-0.049980067
236	0x3d491fb2	0.049102493
237	0x3cad0d9a	0.02112465
238	0x3d1aa56e	0.037755422
239	0x3d0ab78f	0.03386646
240	0xbda1d69d	-0.07902262
241	0xbda15e3a	-0.078793004
242	0x3d1d6fe9	0.038436804
243	0xbce631dc	-0.028099947
244	0x3d05fef3	0.03271384
245	0x3d2680cb	0.04065017
246	0xbdb52923	-0.08845737
247	0x3cf984dc	0.03045886
248	0xbdb88171	-0.09009064
249	0x3bc41d30	0.0059849247
250	0x3c5e201d	0.013557461
251	0x3d41f4c5	0.04735257
252	0x3c0c9527	0.008580483
253	0xbc10321b	-0.008801009
254	0xbc3f052f	-0.011658951
255	0x3d35da30	0.044397533
